hw1_covidpred/models/model.pth (torch, 26127 bytes, 3 tensors)

net.0.weight f4 [64, 93]
00000000: ba5d a2bc 3a25 50bc 9ce0 093d 7e71 bf3d
00000010: 5790 a63d 6ddb 35bd ed3d bdbd 6145 e4bb
00000020: ea23 3f3b 0bcb a33d 8539 353e 2fc7 5bbd
00000030: e15f 4dbd 6f7f 96bd cf6c 29bd cab8 60bc
00000040: 5ca2 bdbd 115a 813b fb3d aebd 3483 e53c
00000050: 3d16 c4bd 1d58 853d 6e8d b53d 4b98 bd3d
00000060: 2d0b 883c 2308 103d d0e3 593c 4160 b13d
00000070: 0e89 043e 5a36 d13d 539a bebd 7ba1 6e3d
00000080: 0baa 713d f611 323d f85a 093d db9c ef3a
00000090: 8ae0 b93d cf8d b9bd 5cee 9bbc a73b 163e
000000a0: 5e1a 053d f2f2 373d 1bc5 3c3d 7538 a23d
000000b0: b97c a5bd 7f72 603d 85b3 ae3a bd93 1fbd
000000c0: e731 4a3a e7df 50bd 630a 933a f856 db3b
000000d0: 0fa0 423d 2de7 083c 745f 8f3d b847 1d3d
000000e0: 70a1 2dbd cfb0 12bd 6960 d8bd daee 8fbb
000000f0: 4adc d93d ba9e 023e 5b0c cfbd ae2e b13d
00000100: 54b8 41bd d2b6 a63d eb37 55bb dd91 e83d
00000110: e125 2bbc fef3 ed3c 6d4b cc3d 89e8 d13c
00000120: bc38 e63d 57e7 253d 8da2 27be eb06 753e
00000130: 8429 c93c 9d73 35bd d826 0e3d ab7b bc3d
00000140: 2fbd 42bd bfcb 533d def3 1ebd 6738 1ebc
00000150: d266 703d e955 12bc 353e 813c 1ddf 14be
00000160: 817a c3bd cbe5 76bd caa1 f8bc e62e 5abd
00000170: 7266 24be ef95 f33c 409e e83c d571 ba3d
00000180: 1274 4fbd affe bdbd 1573 693d cd40 3c3d
00000190: e232 2abd 20da f63d e61e a3bd 833c 75bd
000001a0: dfee 393d 525d e8bb 4a7e 64bd 0cbf 7d3c
000001b0: 6c7f 1cbd a85a c2bd 0a48 42bd 5d7e 43bc
000001c0: d9e6 833c 9f19 90bb fc55 523d 37ef 973d
000001d0: 770c c13d b387 103d f556 1fbc 990f 04bd
000001e0: 25b0 7cbc bdf3 dc3c 880c 55bd 2f38 8cbc
000001f0: d943 273c 83f3 4abd 11dc 9ebd 0795 cb3d
00000200: 7f5a dc3d 5517 5bbb 23da 91bd 904e afbd
00000210: 8423 183e f596 f8bd cd05 87bd d914 b03d
00000220: 8b21 41bd aa3d f8bc 34e6 febd 8eae a4bd
00000230: ec80 843d 2eb0 b03d 73c8 03bd 7726 afbc
00000240: ef9f dcbd 7b1f ffbd 02bb aebc 385a ae3c
00000250: 73ee 3ebd 60ad 89bd 2c11 553e ecba f13c
00000260: f5bb 1abe 3d3d b33d fd2e c1bb 14f3 17bc
00000270: 1c0a b5bd 1ab4 9f3d f0a8 5abd 8d59 143d
00000280: d603 71bd 68cc c8bb 0e5c 05be b3a9 50be
00000290: fd89 26bd f6b2 bbba db09 b03c fbcc 99bd
000002a0: a9ba 9a3e 1039 5cbd 25d7 5fbb e653 ce3c
000002b0: 5c49 45bd 26c0 c13d a571 ffbd f327 e2bc
000002c0: 0b05 95bc 8f88 b93c 9164 d1bd 57c6 803b
000002d0: 6280 7ebd 583b 4cbe ccc7 913d 5d19 18bd
000002e0: 17bb 1cbd a2fd 29be b59a 90bd 1408 74bd
000002f0: d2ec cf3d ca18 6dbd daa8 ad3d c2db 05bd
00000300: 56ce 993d ac22 013b 2d7c 86bd e746 843d
00000310: 5973 b63d 2336 b73d 6be5 66bc f868 b13d
00000320: bf93 993d ae46 df3d e614 053d 8494 e3bc
00000330: 190a 983d 12db dc3c d9cc 8ebb 5165 babc
00000340: 7cbe 10bd d479 1fbd 0da0 8b3d b37d 50bd
00000350: bd0a c3bd a19a 523d 6815 13bc ea4a a33d
00000360: 4785 c0bc 92f0 1ebd c2cd 313d 327d dfbd
00000370: 2fa3 8abc 7d45 6ebc 1db5 933d 8cfa b1bb
00000380: 76eb a03d a877 bbbc 6f21 d63d 071e c33d
00000390: 90e0 2a3d 4216 12bc 38c3 88bc 6fdc 8c3d
000003a0: 110d 0cbd a401 e43c 992e a13d d5fb f1bd
000003b0: f826 c4bd 8be4 503c af1e f93d 1416 62bd
000003c0: 7cfe 23bd 355a 09be 4ef4 353c 4f87 abbd
000003d0: 03c5 ab3d 1e14 8f3d afad 3fbd f95a e6bd
000003e0: ef10 85bd 4a86 08bc 231d 39bd a301 143e
000003f0: 22ac f93a d474 04be 038e 73bd 15d2 663d
-0.019820083 -0.012704188 0.03366147 0.09347819 0.081329994 -0.044398714 -0.09240327 -0.0069662784
0.0029165694 0.07997712 0.17697723 -0.053656753 -0.050140265 -0.07348525 -0.041363534 -0.013715932
-0.09259483 0.0039475043 -0.085079156 0.028016664 -0.09574554 0.06510947 0.08864866 0.09257563
0.016606892 0.03516401 0.013298944 0.08660937 0.12942907 0.10215445 -0.09306779 0.05825947
0.059000056 0.04347416 0.03353402 0.0018281 0.090760306 -0.09060251 -0.019034557 0.14671193
0.03249585 0.044909425 0.046086412 0.079209246 -0.080804296 0.054796692 0.0013328647 -0.038959254
0.00077131245 -0.05099478 0.0011218305 0.006693717 0.047515925 0.008355898 0.07000628 0.038398474
-0.042390287 -0.03581315 -0.10565264 -0.004392487 0.1063772 0.12755862 -0.101097785 0.086514816
-0.04729493 0.08140339 -0.003253455 0.11355946 -0.010446043 0.029047009 0.09975324 0.025623577
0.1124129 0.040503826 -0.16370602 0.2392842 0.024555929 -0.04429971 0.034705013 0.09203275
-0.0475437 0.05170798 -0.03880679 -0.009657002 0.058691807 -0.008931615 0.015776733 -0.14538236
-0.0954485 -0.06027774 -0.030350585 -0.053267382 -0.16054705 0.02973458 0.028395772 0.09103743
-0.050647803 -0.09277093 0.056994516 0.045960236 -0.041552432 0.12053323 -0.07964878 -0.05987216
0.04539382 -0.007091203 -0.0557845 0.015487444 -0.038207456 -0.094899476 -0.047431983 -0.011931983
0.016101288 -0.0043975855 0.051351532 0.074186735 0.094262056 0.035285663 -0.009725322 -0.032241438
-0.0154228555 0.026971692 -0.052013904 -0.017116634 0.010209047 -0.049548637 -0.07756818 0.09940534
0.10759448 -0.0033430655 -0.071216844 -0.085599065 0.14857298 -0.12138168 -0.06592903 0.085977264
-0.04715113 -0.030302841 -0.124462515 -0.08041106 0.064699024 0.086273536 -0.032173585 -0.021380646
-0.107726924 -0.12457176 -0.021329407 0.021283254 -0.04661412 -0.06722522 0.20807332 0.029508077
-0.15110762 0.08751915 -0.005895494 -0.009274263 -0.08839819 0.077980235 -0.053383768 0.036218215
-0.05884155 -0.0061278827 -0.13023397 -0.20377235 -0.04065894 -0.0014320302 0.021489074 -0.075098
0.30220535 -0.053765357 -0.0034155336 0.02518649 -0.048165664 0.094604775 -0.12472848 -0.02760694
-0.018190881 0.022648124 -0.1022426 0.003929894 -0.062134154 -0.19944513 0.07118186 -0.037133563
-0.03826436 -0.1660066 -0.07060758 -0.059578016 0.10152592 -0.05788497 0.084794715 -0.03268028
0.075100586 0.0019704504 -0.065666534 0.06458836 0.089087196 0.08945873 -0.014092783 0.08662599
0.074988835 0.10902153 0.032490633 -0.027780779 0.07423801 0.02695993 -0.004357916 -0.02275339
-0.03533791 -0.038934544 0.06817637 -0.050901126 -0.095235325 0.051416997 -0.008977272 0.07973273
-0.023501052 -0.038803644 0.043409117 -0.10912551 -0.016923515 -0.0145429345 0.07212279 -0.005431479
0.078574106 -0.022884205 0.10455596 0.09527212 0.041718066 -0.0089164395 -0.01669465 0.06877982
-0.03419215 0.027832814 0.07870216 -0.11815611 -0.09577745 0.012749801 0.121640556 -0.055196837
-0.040037617 -0.13413318 0.01110561 -0.083754174 0.083871864 0.06986259 -0.046796497 -0.112478204
-0.064973705 -0.008332798 -0.045193803 0.1445375 0.0019048492 -0.12935191 -0.059461605 0.056352694

net.0.bias f4 [64]
00000000: b3e3 203f 266e 8a3e c2c5 60bd e8ed a13e
00000010: 2772 f53e aca3 c33d d65f c73d 194a c6bd
00000020: 08c4 0c3e 39f5 0b3e 2499 c53e 3bdb d33d
00000030: bc33 0b3f 7cbb 873f 27fe 0e3f 6488 713e
00000040: baa1 a53e ab1a 1c3f 28a6 173e 6512 8cbc
00000050: 32e4 6b3f bfe5 893e b2d1 f6bd f7f6 6b3d
00000060: 695c e03e 1cd8 9d3e 3847 2d3e ef88 7cbd
00000070: 7d75 223e 8ae0 d03e 7f86 c73d bee7 4c3d
00000080: 2ef9 ee3e f70c a43e f35c 273f 9b48 d73d
00000090: 3c2e 793e e18d 043e 8739 2a3e f101 573e
000000a0: 3cbb 273d 9d54 b73d e882 3d3e c475 2b3e
000000b0: d46d 443f 8a0d 523f f62b 993e e018 723d
000000c0: bb83 463e 8b44 743e 1165 5c3d 5a22 a53f
000000d0: 49ff 6b3d 87a9 ab3d 467f a83e f4ec 2c3f
000000e0: e7df 523d d621 883e d93d ef3e 023f 963a
000000f0: 214e 113f 551f 623e cf7f ab3e 2bad 9b3e
0.6284744 0.27037162 -0.054876097 0.3162682 0.47938654 0.09552702 0.09735076 -0.09682102
0.13746655 0.13667764 0.385934 0.10344549 0.54375815 1.0604091 0.55856556 0.23587185
0.3234995 0.6097819 0.14809477 -0.017098615 0.92145073 0.26933095 -0.12051715 0.05760857
0.43820503 0.3082894 0.16921699 -0.061654028 0.1586513 0.4079631 0.0974245 0.050025694
0.46674484 0.3204114 0.65376204 0.10511895 0.24334043 0.12944748 0.16623507 0.20996834
0.040950045 0.089516856 0.18506968 0.16744143 0.76730084 0.8205191 0.29916352 0.059105754
0.19386189 0.23854272 0.053807322 1.2901108 0.057616506 0.08381944 0.32909602 0.6754906
0.05148306 0.26588315 0.46726874 0.001146287 0.5675984 0.22082265 0.33495948 0.30405554

net.2.weight f4 [1, 64]
00000000: 2f4c 053f 27af 993e fa69 993e 58f3 b83e
00000010: 0a03 c73e 3e62 2c3e db5b b23d d49b d23d
00000020: 6444 873e c68d 953e c44e ec3e 4af7 4a3e
00000030: 4604 f33e 4233 863f 3b32 1a3f b424 913e
00000040: c95e 2f3e c0f0 943e 8820 003f 20c0 123e
00000050: 0cec 5b3f a561 9c3e 4dd0 1a3d b25c a03e
00000060: 1c57 073f c33a f83e 54cc 8a3e 525c b43e
00000070: 0602 a73e 5fa9 943e efa2 453e 80eb e93d
00000080: aa1a e43e 2b8f 9a3e b932 2c3f 334e 343e
00000090: 53b8 aa3e 3463 c33e 3616 a63e 45dc 503e
000000a0: 963e 233e a80e 6c3e f5fe 933e bd2a 943e
000000b0: c41c e33e 6c34 493f 61de cb3e 1c80 2e3e
000000c0: 40a3 b43e 6e71 b93e c44c 3e3e a470 863f
000000d0: c059 383e 2ca9 b73e 45e5 e93e d1b8 0e3f
000000e0: b14b 3a3e fda9 463e 9348 133f 2482 7f3e
000000f0: dda3 263f 77ed 853e dc52 9c3e 8f96 a13e
0.5206937 0.30016443 0.29963666 0.36123157 0.38869506 0.16834351 0.08708926 0.10283628
0.26419365 0.29209727 0.46153843 0.19820896 0.47464198 1.0484393 0.60232896 0.28348315
0.17126001 0.29089928 0.5004964 0.14331102 0.85907054 0.30543247 0.037796307 0.3132072
0.52867293 0.48482332 0.27109015 0.35226685 0.3261873 0.2903547 0.19300435 0.11421871
0.44551593 0.30187353 0.67264897 0.17607956 0.33343753 0.38161623 0.3243882 0.20396526
0.15941843 0.23052466 0.28905454 0.28938857 0.44357884 0.78595614 0.398181 0.17041057
0.352808 0.36219352 0.18583971 1.0503125 0.18002987 0.35871255 0.4568273 0.5575076
0.18192936 0.19400783 0.57532614 0.24951988 0.65093786 0.26157734 0.30531967 0.3156018
