hw1_covidpred/model_save/model.pth (torch, 4559 bytes, 3 tensors)

weight f4 [64, 6]
000000 cb d8 88 be 2b b4 c0 3e 3f 17 7a bb f0 27 08 3e
       -0.267279 0.37637457 -0.0038160828 0.13296485
000010 8f 2d 6a 3d cf 6a 00 be e4 8f a2 3d a2 e9 3b 3e
       0.057172354 -0.12540744 0.07937601 0.18350843
000020 3b 3f e9 bd b4 eb 94 be 73 89 d2 3d 5a 7c 0f be
       -0.113890134 -0.29086077 0.102801226 -0.1401228
000030 86 f5 08 be f2 12 58 be 43 c0 b9 3c ae 72 b1 bc
       -0.1337491 -0.21100977 0.022674685 -0.021661129
000040 a6 8a f9 3c 9b cb f7 bd 5e d6 1c be 5f f8 23 3e
       0.03046162 -0.120993815 -0.1531615 0.16012715
000050 81 44 a3 3e 1b 3a 60 be 0f 3d 2a be 8d df 49 3e
       0.31888202 -0.21897165 -0.16624855 0.19714184
000060 a8 12 e3 3a 6b 6f 8d 3e 5b fc ba 3d 1b f5 87 bd
       0.0017324286 0.27624068 0.09130164 -0.06638547
000070 d8 28 b8 bc 9b a1 83 3d c5 38 2d 3e f8 ba c2 be
       -0.022480413 0.06427308 0.16916187 -0.3803327
000080 73 32 2b 3e ec 32 23 3e d8 f2 05 3d 06 3a 2c be
       0.16718464 0.15937394 0.032702297 -0.16819009
000090 f0 ee 9f bc fd c4 9b 3e 3a 71 f4 bd 79 49 b5 bd
       -0.019523114 0.30423728 -0.11935659 -0.088519044
0000a0 7a 0c 63 3e 3d dc c4 3e e4 e4 f3 bc 02 41 fc 3e
       0.22172728 0.38449278 -0.02977223 0.49268347
0000b0 ab 6d f0 bd db 58 4e be 3a 39 e9 3e 44 60 37 be
       -0.117396675 -0.20151083 0.45551473 -0.17907816
0000c0 18 22 13 bc e1 67 37 bd 11 16 6a bd 37 66 2f 3d
       -0.008980297 -0.0447768 -0.05714995 0.04282209
0000d0 47 4f 17 3e c4 5d 2a 3e c1 e6 f7 3d ab 04 3b be
       0.14776336 0.16637331 0.1210456 -0.182635
0000e0 e1 cc 3a 3e 0b 01 3d 3e 42 7e 00 be 19 0a c9 3d
       0.18242218 0.18457429 -0.12548164 0.09816379
0000f0 f5 89 c3 3e 2a 22 8d be 80 f6 bb 3e 0f c0 77 3d
       0.3819119 -0.27565128 0.36711502 0.060485896
000100 8e fc 2f be 15 09 af 3c 60 e8 ec bd 11 23 f7 3a
       -0.17186186 0.021366635 -0.115677595 0.0018855055
000110 36 84 21 3d fb 46 16 3e 68 98 9f 3e 14 e5 bc 3e
       0.039432727 0.14675514 0.31170964 0.36893523
000120 cc aa 3e be 29 e6 c4 3e 75 ad cf bd 96 ae 4b be
       -0.18619841 0.38456848 -0.10140506 -0.19890818
000130 95 7e 06 3e 82 a6 51 3e e4 25 8d be be fa 0b 3f
       0.13134225 0.20473674 -0.2756797 0.5467948
000140 c5 d3 a1 3d 91 b4 25 be 6e 5d a7 3e c6 3c be bd
       0.0790172 -0.16182162 0.3268847 -0.09288935
000150 ed 34 b2 3e 4f 68 f3 3e a6 c0 cb be 97 a3 ab be
       0.34806004 0.4754052 -0.39795417 -0.33523247
000160 82 f0 45 bc e6 31 a7 be ba b3 b0 be f6 3f d5 be
       -0.012081267 -0.32655257 -0.3451212 -0.4165036
000170 50 41 89 be d7 b4 73 3e d6 ad 89 3e 1f 66 45 be
       -0.26807642 0.23799454 0.2689044 -0.19277237
000180 75 6f 19 bd a3 2d f9 3e 8f 2c 17 3a c5 a4 a6 be
       -0.03745981 0.4866763 0.00057668326 -0.32547584
000190 fd 2f ae 3e ea 23 9a be 48 6a 13 be 38 cc 2a 3f
       0.34020987 -0.30105525 -0.14396012 0.66717863
0001a0 ee d4 05 be 5b 9c c6 bc 27 7f 92 3e de 09 4d 3d
       -0.13069507 -0.024244478 0.28612635 0.05005824
0001b0 65 32 0b be dc f0 13 3e 21 6d 56 3a 30 95 8b be
       -0.13593443 0.1444735 0.00081797136 -0.2726226
0001c0 f3 e7 12 3d ec 60 ed 3d 4a a6 6a be 27 f4 54 be
       0.035865735 0.11590752 -0.22914997 -0.20796262
0001d0 2a cb 61 3e 81 e9 8e 3d 5e da c7 3d 5d 73 2d 3d
       0.22050157 0.06978131 0.09758447 0.042346347
0001e0 84 e6 9e 3e ac 34 ec bd 4f 3d 11 be 02 63 4f be
       0.31035244 -0.11533484 -0.14183544 -0.20252612
0001f0 ec 45 0a be 4e 12 52 be 69 8e d6 3e 60 ff c0 3e
       -0.13503236 -0.20514795 0.41905525 0.37694836
000200 02 b8 2f be fb 5c 40 bd 31 8b a9 be d6 6e 76 be
       -0.17160037 -0.046963673 -0.33114007 -0.24065718
000210 13 c6 2b 3e 4f d5 52 3e 39 eb 92 be 92 61 c5 3b
       0.16774778 0.20589183 -0.28695086 0.006023594
000220 db d5 72 3e f3 35 e3 3d 11 10 36 3d ee d6 88 3e
       0.23714392 0.11094274 0.044448916 0.26726478
000230 1b 95 6a 3d 96 c0 02 bd ae aa 74 be 4c d2 2e be
       0.057271104 -0.031921946 -0.23893234 -0.1707241
000240 94 09 6f 3e b0 d4 ae bd 7d 97 74 be 54 de 66 bd
       0.23343498 -0.08536661 -0.23885913 -0.056364372
000250 c5 cd 2b 3e b4 80 9e bd fe 67 95 be e6 a5 ac bd
       0.16777714 -0.07739392 -0.29180902 -0.0843008
000260 82 40 4c 3e e9 d4 73 bb 7c 54 7d 3e 05 bb 6b be
       0.19946483 -0.0037205762 0.2473926 -0.23020561
000270 a9 7b 44 be ce 66 51 3e e3 51 2e 3c 5a 3f 8e 3d
       -0.19187798 0.20449373 0.0106396405 0.06945677
000280 36 f8 35 3e 5c 68 80 be 9a c2 83 3e 77 fb 7b be
       0.17770466 -0.2507962 0.25734407 -0.24607645
000290 be 7f 5d bd 44 d4 11 3e 92 c9 e5 3d 36 b6 88 be
       -0.054076903 0.14241129 0.11220087 -0.26701516
0002a0 31 57 a1 bd 0a 40 65 3f 98 0b 32 bd 86 a2 d9 bd
       -0.078779586 0.8955084 -0.043468088 -0.10626702
0002b0 fa 71 9e bd f8 6e 18 3e 6b 8a f8 3d 0b 87 9e 3e
       -0.07736583 0.14886081 0.12135776 0.30962405
0002c0 bb 0c ac be 7f 76 93 be ad 82 a5 3e 04 47 2e 3b
       -0.33603463 -0.28801343 0.3232626 0.0026592622
0002d0 59 2f 9c 3d f7 dd c6 3d ac cb b5 be a3 39 4f bd
       0.07626218 0.09710305 -0.35506952 -0.050592076
0002e0 81 37 1f 3d 1a f1 1c 3e 1d 50 52 bd 69 25 0b be
       0.038871292 0.15326348 -0.051345933 -0.1358849
0002f0 01 c9 92 3e 60 bb 17 be c5 71 a4 3e 96 20 35 be
       0.2866898 -0.14817572 0.3211805 -0.17688212
000300 f3 5a 2a be b9 df 1e bd 70 43 82 3e 0d 4d e8 bd
       -0.16636257 -0.038787577 0.25442076 -0.11342821
000310 6a 45 89 3e 51 e4 92 be 25 f5 0c 3c a4 af 29 bd
       0.2681077 -0.28689817 0.008603369 -0.04142727
000320 05 0d 6a 3e c5 6c 64 3e a8 99 50 3e 9f 5f 28 be
       0.22856529 0.22307117 0.20371115 -0.16442727
000330 d7 05 98 3e 1f 99 0b be 71 93 89 3e 30 b5 c7 3e
       0.29691955 -0.1363263 0.268703 0.39005423
000340 a1 0f c2 be 6a 8e 66 be 3d 80 94 3e db 19 9b be
       -0.3790255 -0.22515264 0.29004088 -0.30293164
000350 db 00 4b 3d 5c 7c c4 be bb 67 85 3e 09 fb 7e 3e
       0.049561363 -0.3837613 0.26055703 0.2490045
000360 bb f5 54 3e cb 4e 24 3f 76 62 c2 3d 46 a1 0e be
       0.20796864 0.6418273 0.09491436 -0.13928708
000370 53 bb 2a 3e 06 7d 94 be eb 68 e8 3d 80 d9 a9 3e
       0.16673021 -0.29001635 0.113481365 0.33173752
000380 10 bb 87 3e ff 11 d6 bd 04 9d 75 be e8 bb 5c bd
       0.26509905 -0.10452651 -0.23985678 -0.05389014
000390 74 60 ea 3e c5 d6 92 3c 44 2f 75 be 4c 62 9b 3c
       0.45776713 0.017924676 -0.23943812 0.01896777
0003a0 1d 73 4b bd de 25 87 be 65 27 2d 3e 21 16 5c be
       -0.049670327 -0.26396078 0.16909559 -0.21492817
0003b0 e2 58 44 3d b7 a0 43 be d0 d8 5a bd 0f 1a 9e bd
       0.047936328 -0.19104277 -0.053429425 -0.07719814
0003c0 2b 16 ed bd 20 82 cd 3e 3f 66 b0 3d a3 7d 6b 3d
       -0.11576494 0.4013834 0.08613252 0.057492863
0003d0 3b e1 6c be 48 86 7f 3d 94 29 ae bb 76 cf 01 3f
       -0.23132794 0.06238392 -0.005315015 0.50707185
0003e0 8d a9 53 bd 5c 3f f3 3c f3 4e ba 3e 00 81 0f bf
       -0.051675368 0.029693298 0.36388358 -0.56056213
0003f0 73 ee 49 be cf 04 6b 3e b2 fa 47 bc 8e 3e 8e 3e
       -0.19719867 0.22951053 -0.0122057665 0.277821

bias f4 [64]
000000 38 c3 9f 3e 48 67 7c be 19 a2 d7 bd fa f6 25 3e
       0.31203628 -0.24648774 -0.105289645 0.16207495
000010 55 fe 29 3f 6a c3 5a be d3 d8 07 3f d4 74 3a 3f
       0.66403705 -0.21363607 0.5306522 0.72834516
000020 aa d5 16 3f 6a 9c b0 3c 1f aa 8a be 78 ea 52 3e
       0.58919775 0.021558959 -0.27082917 0.20597255
000030 fa f6 02 3f cd 12 48 3f a6 70 b4 be b8 b2 bf be
       0.51158106 0.7815369 -0.35242194 -0.3744104
000040 33 6d a9 3e c1 af a7 3f 53 da 1a be e5 d6 94 be
       0.33091125 1.3100511 -0.15122347 -0.29070202
000050 6d 83 ac be 02 5f c7 be 05 d5 67 3f 20 81 08 3f
       -0.3369402 -0.38939673 0.90559417 0.5332203
000060 57 01 62 be 57 ec bc bd ec 68 00 be c8 b1 90 bd
       -0.22070824 -0.09224766 -0.12540025 -0.07065159
000070 f0 0a aa 3f 5d 0c af 3e 93 55 8a be 3b b8 48 be
       1.3284588 0.3418912 -0.27018413 -0.19601528
000080 ae 90 a5 bd df de c8 bc 6f 70 52 be 51 63 93 3d
       -0.08084236 -0.024520336 -0.20550703 0.071966775
000090 e3 44 b0 3f 84 72 20 3e b5 7a 05 be 03 5f a9 bd
       1.3771023 0.15668684 -0.1303509 -0.08270075
0000a0 59 a1 f3 3e 6a 25 e7 3d b3 1e 8f bd 0f 58 b3 3e
       0.47584036 0.11286433 -0.06988277 0.3502812
0000b0 12 8d 55 be ba 29 e3 3d 63 14 6b 3f bf 27 f7 3d
       -0.20854595 0.11091943 0.9182798 0.12068128
0000c0 eb fe 63 3f 4f c9 f0 3d fe 9a ca bd 1e 83 b6 be
       0.8906085 0.117571466 -0.09892844 -0.3564691
0000d0 51 4b 3e 3e 69 e2 4e be e0 bb 84 3f eb 17 d9 3e
       0.18583418 -0.20203556 1.0369835 0.4240106
0000e0 da 2e 90 3e 99 ae e0 3e 7c b8 f3 bd 02 30 26 3f
       0.28160745 0.43883207 -0.11900422 0.64917004
0000f0 f3 3e 97 3b 22 3a 14 bd d7 eb 73 be e5 7d 6b be
       0.0046156584 -0.036188252 -0.23820435 -0.22997244

weight f4 [1, 64]
000000 aa 6b 07 3f 8f 60 6c be d2 9e 44 be cd 84 76 3d
       0.5289866 -0.23083709 -0.1920121 0.060185242
000010 db e7 10 3f d2 be 89 3e 33 ef 11 3f 6f f1 49 3f
       0.56603783 0.26903397 0.57005614 0.78884023
000020 c7 22 e9 3e 27 ad d5 bd 13 99 ec be 10 31 8c 3e
       0.45534346 -0.10433417 -0.46210536 0.27381182
000030 2a a3 35 3f 51 95 74 3f dd 03 44 bf ea 2f 14 bf
       0.70952094 0.9554034 -0.76568395 -0.5788561
000040 0d 1d 01 3f 4c c2 b6 3f f7 20 33 bd 6b 93 73 be
       0.5043495 1.4278045 -0.04373261 -0.23786704
000050 83 69 49 be 89 1a 1f bf d8 59 45 3f 02 1e 04 3f
       -0.19669156 -0.62149864 0.77090216 0.5160829
000060 13 11 4d 3d 31 5f 94 be f6 17 b3 bd 16 f5 aa bc
       0.05006511 -0.28978875 -0.087448046 -0.02086882
000070 c6 51 b9 3f 01 cb 02 3f 42 06 27 3e e5 2d e7 bd
       1.447808 0.5109101 0.16310981 -0.112880506
000080 72 0d 10 be 33 84 9e 3d 81 99 e0 be 25 1a ba 3e
       -0.14067629 0.07740059 -0.43867114 0.36348072
000090 b8 84 ad 3f de b8 c2 3c 3e fc b9 be 29 cf 60 3e
       1.3556128 0.023769792 -0.36325258 0.21954025
0000a0 9f fd da 3e 8b 24 39 3f a8 83 95 3d bd 01 cf 3e
       0.42771623 0.72321385 0.07300502 0.40431014
0000b0 5d c0 49 3d a7 17 08 3e 12 98 4a 3f e7 55 57 3e
       0.049255718 0.13290273 0.7913829 0.21028863
0000c0 eb 47 3d 3f 3c f9 b1 3e 20 17 b4 bc b6 e5 72 be
       0.73937863 0.34760463 -0.021983683 -0.2372044
0000d0 55 b1 e0 3d cb ec a4 be 2b 30 61 3f 0e 02 19 3f
       0.109713234 -0.3221191 0.87964123 0.5976876
0000e0 bf 8d 1b 3e 72 9d ad 3e 76 2d 29 be cd f7 3a 3f
       0.1519079 0.33909184 -0.16521248 0.73034364
0000f0 b3 33 c7 3e 62 53 e1 bd 53 8d 0b be a2 43 bc 3d
       0.3890663 -0.11002232 -0.1362813 0.091925874
